…
"https://localhost:8080/"},"executionInfo":{"elapsed":23,"status":"ok","timestamp":1746421816209,"user":{"displayName":"Gampa Akshaya","userId":"05250410253114565461"},"user_tz":-330},"id":"VpCEbWGQXScQ","outputId":"32473407-43bc-46d9-f50c-360e8775e3b9"},"outputs":[{"data":{"text/plain":["==========================================================================================\n","Layer (type:depth-idx)                   Output Shape              Param #\n","==========================================================================================\n","ImprovedTinyVGGModel                     [1, 6]                    --\n","├─Sequential: 1-1                        [1, 48, 112, 112]         --\n","│    └─Conv2d: 2-1                       [1, 48, 224, 224]         1,344\n","│    └─ReLU: 2-2                         [1, 48, 224, 224]         --\n","│    └─Conv2d: 2-3                       [1, 48, 224, 224]         20,784\n","│    └─ReLU: 2-4                         [1, 48, 224, 224]         --\n","│    └─MaxPool2d: 2-5                    [1, 48, 112, 112]         --\n","│    └─BatchNorm2d: 2-6                  [1, 48, 112, 112]         96\n","│    └─Dropout: 2-7                      [1, 48, 112, 112]         --\n","├─Sequential: 1-2                        [1, 192, 56, 56]          --\n","│    └─Conv2d: 2-8                       [1, 192, 112, 112]        83,136\n","│    └─ReLU: 2-9                         [1, 192, 112, 112]        --\n","│    └─Conv2d: 2-10                      [1, 192, 112, 112]        331,968\n","│    └─ReLU: 2-11                        [1, 192, 112, 112]        --\n","│    └─MaxPool2d: 2-12                   [1, 192, 56, 56]          --\n","│    └─BatchNorm2d: 2-13                 [1, 192, 56, 56]          384\n","├─Sequential: 1-3                        [1, 96, 28, 28]           --\n","│    └─Conv2d: 2-14                      [1, 192, 56, 56]          331,968\n","│    └─ReLU: 2-15                        [1, 192, 56, 56]          --\n","│    └─Conv2d: 2-16                      [1, 96, 56, 56]           165,984\n","│    └─ReLU: 2-17                        [1, 96, 56, 56]           --\n","│    └─MaxPool2d: 2-18                   [1, 96, 28, 28]           --\n","│    └─BatchNorm2d: 2-19                 [1, 96, 28, 28]           192\n","│    └─Dropout: 2-20                     [1, 96, 28, 28]           --\n","├─Sequential: 1-4                        [1, 6, 14, 14]            --\n","│    └─Conv2d: 2-21                      [1, 48, 28, 28]           41,520\n","│    └─ReLU: 2-22                        [1, 48, 28, 28]           --\n","│    └─Conv2d: 2-23                      [1, 6, 28, 28]            2,598\n","│    └─ReLU: 2-24                        [1, 6, 28, 28]            --\n","│    └─MaxPool2d: 2-25                   [1, 6, 14, 14]            --\n","│    └─BatchNorm2d: 2-26                 [1, 6, 14, 14]            12\n","├─Sequential: 1-5                        [1, 6]                    --\n","│    └─Flatten: 2-27                     [1, 1176]                 --\n","│    └─Linear: 2-28                      [1, 48]                   56,496\n","│    └─ReLU: 2-29                        [1, 48]                   --\n","│    └─Dropout: 2-30                     [1, 48]                   --\n","│    └─Linear: 2-31                      [1, 6]                    294\n","==========================================================================================\n","Total params: 1,036,776\n","Trainable params: 1,036,776\n","Non-trainable params: 0\n","Total mult-adds (Units.GIGABYTES): 7.91\n","==========================================================================================\n","Input size (MB): 0.60\n","Forward/backward pass size (MB): 94.88\n","Para
…
